Synthetic_to_real_unsupervised_Domain_Adaptation/SynthesisControlParameters_Extractor_Network.pth (torch, 102531 bytes, 10 tensors)

conv1.0.weight f4 [5, 1, 3, 3]
0	0xbe603248	-0.21894181
1	0xbe466a98	-0.193766
2	0x3e8da6a9	0.27666214
3	0x3e6aef62	0.2294288
4	0xbe594638	-0.21218193
5	0xbe2a6266	-0.16639099
6	0x3e5ac0ae	0.21362564
7	0x3d928f3c	0.07156226
8	0xbdb05a50	-0.08610976
9	0x3d7fd358	0.062457412
10	0xbce6d2f0	-0.028176755
11	0x3d71b640	0.059011698
12	0xbdedebf6	-0.116172716
13	0xbe8d9c0e	-0.27658123
14	0xbe2244b6	-0.15846524
15	0xbe42e00b	-0.19030778
16	0x3d70c258	0.05877909
17	0x3e9f44ab	0.31107077
18	0x3de0be84	0.10973838
19	0xbd0b4ba8	-0.0340077
20	0x3e65978a	0.22421089
21	0x3e2bdf6e	0.1678445
22	0xbeaa133b	-0.33217797
23	0xbd7a6da8	-0.061139733
24	0x3da58040	0.08081102
25	0xbe30cdfb	-0.17266075
26	0xbe016f1e	-0.12640044
27	0x3e0ead68	0.13933337
28	0xbe3051b8	-0.17218673
29	0xbd19d3e0	-0.037555575
30	0x3df99dac	0.12188277
31	0x3df090fc	0.117464036
32	0xbe89a643	-0.2688466
33	0xbd8dccb0	-0.06923807
34	0x3e29dde2	0.16588548
35	0x3e9e87d1	0.30962995
36	0x3dbd29c0	0.09236479
37	0x3dfddd24	0.12395695
38	0xbe866be4	-0.2625419
39	0x3e864725	0.26226154
40	0x3e98bbdd	0.29830828
41	0xbe89ad40	-0.26889992
42	0xbde82230	-0.11334646
43	0x3e83347f	0.2562599
44	0xbe7c4d5b	-0.24638884

conv1.0.bias f4 [5]
0	0x3dc29eec	0.09502968
1	0xbea8badb	-0.3295506
2	0x3d2edc98	0.042690843
3	0x3e8c741b	0.2743233
4	0x3e9f3825	0.31097522

conv2.0.weight f4 [10, 5, 3, 3]
0	0x3d9a2688	0.075268805
1	0xbe0473b4	-0.12934762
2	0xbcdb0e64	-0.02674026
3	0xbe124c47	-0.1428691
4	0xbe0118fd	-0.12607189
5	0x3e13c769	0.14431538
6	0x3cca3618	0.024683997
7	0xbd5d07fc	-0.053962693
8	0xbdd169c7	-0.102252536
9	0xbd896428	-0.067085564
10	0xbe0cdbda	-0.13755742
11	0xbdcb7478	-0.09934324
12	0x3dae8108	0.085207045
13	0x3d8413ea	0.06449111
14	0x3c502130	0.012703225
15	0xbcffcd30	-0.03122577
16	0xbdd950b1	-0.10611094
17	0x3dd8cad2	0.1058556
18	0xbcd77140	-0.026299119
19	0x3c3591e0	0.011082143
20	0xbe11cec1	-0.14239027
21	0xbcb89828	-0.022533491
22	0xbe031414	-0.12800628
23	0x3d3f8af4	0.046763375
24	0x3db40262	0.08789517
25	0x3d0c276c	0.034217283
26	0xbd33bc9e	-0.04388105
27	0x3d6a7764	0.057242766
28	0x3da91a8c	0.082570165
29	0x3e0c63ff	0.1371002
30	0x3d644fe0	0.055740237
31	0xbe095055	-0.1340955
32	0x3cf08c20	0.029363692
33	0xbce0d9f0	-0.02744767
34	0x3db18604	0.086681396
35	0x3d0dfd8c	0.03466563
36	0xbe0c93b6	-0.13728222
37	0x3da2d414	0.07950607
38	0x3d4415d4	0.04787238
39	0x3dcd476c	0.10023388
40	0xbdb035b6	-0.086039945
41	0x3c6fb3b0	0.014630243
42	0x3ddb23be	0.10700177
43	0xbe147cac	-0.14500684
44	0xbd6381ac	-0.055543587
45	0xbdac2b2d	-0.084066726
46	0xbde5e640	-0.11225557
47	0xbdb60560	-0.08887744
48	0x3bbac840	0.005700141
49	0xbde71587	-0.11283403
50	0x3c25f320	0.010128766
51	0xbc2b4480	-0.010453343
52	0xbe0353ca	-0.12824932
53	0xbdbf4c6f	-0.093407504
54	0xbe0d9c6d	-0.13829203
55	0x3df234aa	0.11826451
56	0xbdc8849f	-0.097909205
57	0xbdf8f342	-0.12155773
58	0xbd7b6c88	-0.0613828
59	0xbd77016a	-0.060304083
60	0x3d5288c8	0.051399976
61	0xbe08dc71	-0.13365342
62	0x3ded4cde	0.11586927
63	0xbd91cf58	-0.07119626
64	0x3cfef148	0.031120911
65	0x3dbca15a	0.09210463
66	0x3dd548a6	0.10414247
67	0x3c6b0010	0.014343277
68	0x3cf0b8b8	0.029384956
69	0xbd8ad74c	-0.06779346
70	0x3e14ed57	0.14543663
71	0x3c9b0728	0.01892431
72	0xbd3c4568	-0.04596463
73	0x3c4e7d50	0.012603119
74	0x3cf3b680	0.029750109
75	0xbe00aa4a	-0.1256496
76	0x3dd38672	0.10328378
77	0xbc2ab440	-0.0104189515
78	0x3e035279	0.1282443
79	0xbda80abc	-0.082051724
80	0x3ce74d20	0.028235018
81	0xbd8dbfca	-0.069213465
82	0xbda7693e	-0.0817437
83	0xbd9947c0	-0.07484388
84	0xbe02fe2d	-0.12792273
85	0xbd6196d6	-0.05507549
86	0xbe032d2a	-0.12810197
87	0x3dc062be	0.093938336
88	0x3d3de62c	0.046362087
89	0x3df35b62	0.11882664
90	0xbd336ac2	-0.043802984
91	0x3daf99ba	0.08574243
92	0x3db802e4	0.08984926
93	0xbe0a83cd	-0.1352684
94	0x3dc5656a	0.09638484
95	0xbcdd9d1c	-0.027052455
96	0xbdafaae3	-0.08577516
97	0x3d880f1a	0.066435054
98	0xbd6eaa1a	-0.05826769
99	0x3dce8e78	0.100857675
100	0xbc938c00	-0.018011093
101	0x3dc8f45c	0.09812233
102	0x3df47f9a	0.119384006
103	0x3dc9f28c	0.09860715
104	0x3c84dd48	0.016218796
105	0x3e04b3fb	0.12959282
106	0xbde52663	-0.11188962
107	0x3dc0749e	0.09397243
108	0x3e0023e9	0.12513699
109	0x3dbc23d6	0.09186523
110	0xbc6af7c0	-0.014341295
111	0x3dec550e	0.115396604
112	0xbdc6f9a8	-0.09715587
113	0xbde35ee2	-0.11102082
114	0xbc0f0f30	-0.008731648
115	0xbe04ab9b	-0.12956087
116	0xbdd201a5	-0.1025422
117	0xbda30f18	-0.07961863
118	0xbd3cec10	-0.046123564
119	0x3cc29d10	0.023756534
120	0xbda96416	-0.08271043
121	0x3b8b7ce0	0.0042568296
122	0xbd084ce8	-0.03327647
123	0xbe1286ec	-0.14309281
124	0xbdd88f2e	-0.10574184
125	0xbdecd679	-0.11564345
126	0x3dce66bc	0.10078189
127	0x3d7c5dfc	0.061613068
128	0xbc7bceb0	-0.015369102
129	0xbe147c2e	-0.14500496
130	0xbd7230fc	-0.059128746
131	0xbe087cc2	-0.13328841
132	0x3d4dd324	0.050250188
133	0xbd1d0eaa	-0.038344063
134	0x3d18643c	0.037204966
135	0x3e153bb1	0.14573552
136	0xbbb5ade0	-0.005544409
137	0x3ce174b8	0.027521476
138	0xbe0b447e	-0.13600346
139	0xbd21ac30	-0.03947085
140	0xbd71eda0	-0.059064507
141	0xbe112023	-0.14172415
142	0xbbd8a640	-0.0066116154
143	0x3d4d2be4	0.050090685
144	0x3d53036c	0.051516935
145	0x3deb294a	0.11482485
146	0x3cf83d48	0.030302659
147	0xbd7061f4	-0.058687165
148	0xbdca6e04	-0.09884265
149	0x3d9f8dda	0.07790728
150	0x3d33449c	0.043766603
151	0xbc565590	-0.013081923
152	0xbc6ea180	-0.014564872
153	0xbddc33b6	-0.107520506
154	0x3ddb94f2	0.107217684
155	0x3d8cea4c	0.06880626
156	0xbdaac2b4	-0.08337918
157	0xbe00cd6c	-0.12578362
158	0xbd277886	-0.040886424
159	0x3dc4b5b6	0.09604971
160	0xbc2f4dc0	-0.010699689
161	0x3cfe1758	0.03101699
162	0x3c7a87d0	0.015291169
163	0x3d50d56c	0.050984785
164	0xbdcd51d6	-0.100253746
165	0xbdba7dc6	-0.09106021
166	0x3ca65848	0.020305768
167	0xbd3e5c08	-0.046474487
168	0x3c6ad7d0	0.01433368
169	0x3d003a38	0.03130552
170	0x3d4b61e4	0.049653903
171	0x3d5dfe8c	0.054197833
172	0x3d886af2	0.06661023
173	0xbdb9437f	-0.09046077
174	0xbde93f96	-0.11389081
175	0x3d8abb12	0.06773962
176	0xbd6e5102	-0.058182724
177	0x3c054f50	0.008136585
178	0x3cfd0648	0.030886784
179	0x3db5c464	0.08875349
180	0xbd531866	-0.05153694
181	0xbde05ee5	-0.109556
182	0xbdd0f7ba	-0.102035
183	0xbdef059e	-0.11670993
184	0xbd427d68	-0.047482878
185	0xbd9c0d55	-0.076197304
186	0xbe063e3d	-0.1310968
187	0x3de923d2	0.11383785
188	0x3dac589c	0.084153384
189	0x3d422f80	0.04740858
190	0x3d375018	0.044754118
191	0x3d009e60	0.03140104
192	0xbb5d7640	-0.0033792406
193	0x3d82f9f6	0.063953325
194	0xbdc64c1a	-0.09682484
195	0xbd8bd1ce	-0.068271264
196	0xbdc1604a	-0.09442194
197	0xbc042050	-0.0080643445
198	0xbd12097a	-0.03565357
199	0xbdb89a60	-0.0901382
200	0x3d5610ec	0.05226223
201	0x3da4b366	0.0804203
202	0x3dbfb9a6	0.093615815
203	0xbe16b9e7	-0.14719354
204	0x3d7bd0dc	0.06147848
205	0xbdb94f6e	-0.09048353
206	0x3d08598c	0.033288524
207	0x3dc6caea	0.097066715
208	0xbcee9338	-0.029122934
209	0x3e0761c3	0.13220887
210	0xbe0ded36	-0.1386002
211	0x3e10d13d	0.14142318
212	0xbdfa38be	-0.12217854
213	0x3d998a4c	0.07497081
214	0x3d228d20	0.03968537
215	0xbe125a04	-0.1429215
216	0x3dcd7eb6	0.10033934
217	0x3b128080	0.0022354424
218	0x3dbb7e02	0.091548935
219	0xbd19ef4e	-0.037581734
220	0xbd8ff363	-0.07028844
221	0x3d79ad34	0.060956195
222	0x3e0fc5ff	0.14040373
223	0x3e0e3d9b	0.13890688
224	0xbc9e0498	-0.0192893
225	0xb9b0c600	-0.00033716857
226	0x3d9ccee4	0.07656649
227	0x3ddfcfb6	0.109282896
228	0x3df01b86	0.11724
229	0xbe179fe0	-0.14807081
230	0xbacaa500	-0.0015460551
231	0x3cc1f060	0.02367419
232	0xbd97fb6f	-0.07421004
233	0x3bbfe780	0.0058564544
234	0xbdb14f23	-0.08657672
235	0x3c9dfe20	0.019286215
236	0x3d31c6c4	0.04340245
237	0xbdf83822	-0.121200815
238	0xbe14e559	-0.14540614
239	0xbd35c236	-0.044374667
240	0x3dd0a156	0.101870224
241	0x3d3dd7a8	0.046348244
242	0x3d776048	0.060394555
243	0xbda18874	-0.078873545
244	0xbe105f1a	-0.14098778
245	0xbc879378	-0.01654981
246	0x3d7510e4	0.05983056
247	0xbcd263a8	-0.025682285
248	0x3d0acab8	0.033884734
249	0x39bd8600	0.00036148727
250	0x3de11266	0.10989837
251	0x3b3e7a00	0.0029064417
252	0x3dd4e42e	0.10395084
253	0x3cf992f0	0.030465573
254	0xbd886852	-0.066605225
255	0xbc9e2020	-0.019302428

conv2.0.bias f4 [10]
0	0x3e16021d	0.14649244
1	0xbda3eb19	-0.08003826
2	0x3deec7b2	0.116591826
3	0xbd1818be	-0.03713297
4	0x3cb7a7e0	0.022418916
5	0x3c529650	0.01285322
6	0x3dbf2018	0.09332293
7	0x3d62b734	0.055350497
8	0xbd2c48ee	-0.04206174
9	0xbdd6e5f2	-0.10493077

conv3.0.weight f4 [20, 10, 3, 3]
0	0x3c7d98a8	0.015478291
1	0x3d37f3fe	0.044910423
2	0xbd4a88a4	-0.049446717
3	0x3d9cee27	0.076626115
4	0x3bdd6110	0.0067559555
5	0xbcc0edd4	-0.023550905
6	0x3db00d01	0.0859623
7	0xbd912f46	-0.07089095
8	0xbd222a7c	-0.039591298
9	0x3c0b09e8	0.008486249
10	0xbd99e7df	-0.07514929
11	0x3d9d5931	0.076830275
12	0xbd5d7cbc	-0.054074034
13	0xbd76af15	-0.060225565
14	0x3d6b4ef2	0.057448335
15	0xbdd5f756	-0.10447566
16	0x3d7e51d6	0.062089764
17	0xbd9f567c	-0.077801675
18	0x3c93675c	0.017993622
19	0xbd5c854c	-0.05383806
20	0xbdab7d26	-0.083734795
21	0xbd82a40f	-0.06378948
22	0xbd6ca8a1	-0.057778005
23	0xbdb70172	-0.089358225
24	0xbd5075b4	-0.0508935
25	0xbd59f27d	-0.05320977
26	0xb9a41900	-0.00031299144
27	0xbd3eb791	-0.04656178
28	0x3dd39283	0.10330679
29	0xbdb4c6d9	-0.0882699
30	0x3c7c8430	0.015412375
31	0x3daafbe1	0.08348823
32	0xbd327043	-0.043564092
33	0x3da9a009	0.082824774
34	0xbcb2a05c	-0.021804981
35	0x3dbed085	0.09317116
36	0xbd6c5662	-0.05769957
37	0x3d36648a	0.044529475
38	0x3cd6ae34	0.026206113
39	0xbce2d32c	-0.027688585
40	0x3d4166e2	0.047217257
41	0xbdd00959	-0.10158033
42	0xbd8bbaf2	-0.06822766
43	0xbc4bcfc0	-0.012439668
44	0xbdc556ee	-0.09635721
45	0xbd9b44ae	-0.07581459
46	0x3d2aa3a6	0.041659974
47	0x3da33373	0.079687975
48	0xbd2dc896	-0.04242762
49	0xbcab7814	-0.020931281
50	0xbd6c07c3	-0.05762459
51	0xbd1db4ec	-0.03850262
52	0xbd659795	-0.056052763
53	0x3d3a128e	0.04542785
54	0xbd9d9e8f	-0.07696258
55	0xbc49e050	-0.012321547
56	0xbdc267db	-0.09492465
57	0xbce7949c	-0.028269105
58	0xbd85fea6	-0.06542711
59	0x3d2c6076	0.04208418
60	0xbd9ebf52	-0.07751335
61	0x3dae9899	0.085251994
62	0x3db8941d	0.09012625
63	0xbdc20020	-0.0947268
64	0xbd01d3f0	-0.03169626
65	0xbd305246	-0.043047212
66	0xbcca44e0	-0.024691045
67	0x3d8d4335	0.06897584
68	0x3d3ca94a	0.046059884
69	0xbd8cd413	-0.068763874
70	0x3dd04029	0.101684876
71	0x3aae6f40	0.0013308302
72	0x3cc51f7c	0.024062864
73	0xbc898e8c	-0.016791604
74	0xbdc91e37	-0.09820216
75	0x3cd8d57c	0.026468985
76	0xbc1f1098	-0.009708546
77	0x3cf65a4c	0.030072354
78	0xbc8746d8	-0.016513273
79	0xbdc7f2a0	-0.09763074
80	0xbc4dfbc8	-0.012572236
81	0x3d5a4006	0.053283714
82	0xbc830eb0	-0.015998214
83	0x3dc9cf7b	0.09854027
84	0xbcfa83d0	-0.030580431
85	0x3daa97e7	0.08329754
86	0x3cfdf864	0.031002231
87	0x3d9c4bfb	0.076316796
88	0xbce7fd1c	-0.028318934
89	0x3da838f9	0.08213992
90	0x3bef7470	0.0073075816
91	0xbcddcf20	-0.027076304
92	0x3c020390	0.00793542
93	0x3d1d84e6	0.03845682
94	0xbbac0810	-0.0052499846
95	0x3c12fe60	0.008971781
96	0xbdc9c618	-0.098522365
97	0x3d3afb2e	0.0456497
98	0xbd62cdb6	-0.055371962
99	0x3db9a17d	0.090640046
100	0x3d8e5187	0.06949144
101	0xbd6826a3	-0.05667747
102	0xbdbc87f9	-0.09205622
103	0xbc81af40	-0.015830636
104	0xbbaa3650	-0.005194463
105	0x3d73436a	0.059390463
106	0xbd8162be	-0.06317662
107	0xbd2bc8ee	-0.04193967
108	0xbd784abe	-0.060618155
109	0x3d58317e	0.052781574
110	0x3da4bc7b	0.08043762
111	0xbd96eb95	-0.073691525
112	0x3c66e8a8	0.0140935555
113	0xbaa725c0	-0.0012752339
114	0xbd519958	-0.05117163
115	0x3b9ac170	0.0047227666
116	0xbda2b2d4	-0.07944265
117	0x3c42af20	0.011882573
118	0xbd6a1f48	-0.05715874
119	0xbd9fb424	-0.07798031
120	0xbd8ad6cc	-0.067792505
121	0xbce24f04	-0.027625568
122	0xbd657597	-0.056020346
123	0x3cc901b4	0.024536945
124	0x3d34083a	0.043953158
125	0x3cc046c4	0.023471244
126	0xbdb307d0	-0.087417245
127	0x3cadd2ac	0.02121862
128	0x3d289fae	0.041167907
129	0xbdb868ab	-0.09004339
130	0xbdb966f6	-0.09052841
131	0xbd960f5b	-0.073271476
132	0x3d68c98e	0.056832843
133	0xbdb49602	-0.08817674
134	0xbd52989b	-0.051415067
135	0x3d90748b	0.07053479
136	0xbd3251bf	-0.04353499
137	0xbca29ca4	-0.019850083
138	0xbdb51862	-0.08842541
139	0xbdcad0df	-0.0990312
140	0x3d273732	0.040824123
141	0xbdb03cd6	-0.086053535
142	0xbd153eb2	-0.036436744
143	0xbd9d62c4	-0.07684854
144	0xbbeb8d80	-0.007188499
145	0x3d65ba9a	0.05608616
146	0xbd47e24b	-0.048799794
147	0x3d51241e	0.051059835
148	0x3d7e7bc2	0.062129743
149	0xbca621e4	-0.020279832
150	0x3ced6b04	0.028981693
151	0x3dbe6d0b	0.09298142
152	0x3d289eaa	0.04116694
153	0xbd1bb606	-0.038015388
154	0xbdac9b90	-0.08428109
155	0xbd944f6f	-0.07241713
156	0x3dbbcbbb	0.09169718
157	0x3da005a1	0.07813574
158	0x3da93b05	0.0826321
159	0xbda5f30e	-0.08103
160	0xbd01fe8c	-0.031736895
161	0xbd46886b	-0.048469942
162	0xbc901778	-0.017589316
163	0x3d99fd33	0.07518997
164	0xbd61ed19	-0.055157755
165	0x3d7d8f62	0.06190432
166	0xbdc1d6e6	-0.09464817
167	0xbd1cef70	-0.038314283
168	0x3d51d1aa	0.05122534
169	0xbdceba21	-0.10094095
170	0x3d19dada	0.03756223
171	0x3d586b2a	0.052836575
172	0xba4ec880	-0.0007888153
173	0x3ca81aa4	0.020520516
174	0xbcae69ac	-0.021290623
175	0xbcb6a110	-0.022293597
176	0x3d8406a9	0.06446583
177	0xbcbeac9c	-0.023275666
178	0x3cf25104	0.029579647
179	0x3d9d8631	0.076916106
180	0xbd879b41	-0.06621409
181	0x3d1b2436	0.03787633
182	0x3cf4ceb4	0.02988372
183	0xbcc02c90	-0.023458749
184	0xbd2585d0	-0.040410817
185	0xbcd62fa8	-0.026145771
186	0x3d5b9f1e	0.053618543
187	0x3dc9bd07	0.09850507
188	0x3db7aaa5	0.08968095
189	0xbc8d5800	-0.017253876
190	0xbd828887	-0.06373697
191	0xbdae3d2e	-0.08507763
192	0xbd91bc54	-0.07115999
193	0x3d7ff106	0.062485717
194	0x3cd01cdc	0.025404386
195	0x3dc839d3	0.09776654
196	0xbd124376	-0.035708867
197	0x3d12aaae	0.035807304
198	0x3d23df8e	0.04000812
199	0x3d71a64a	0.058996476
200	0x3cc67b44	0.0242287
201	0x3d8c30a9	0.06845219
202	0xbc73b150	-0.014873818
203	0xbd3b7dd1	-0.045774285
204	0xbcc39158	-0.023873016
205	0xbcc9c5f0	-0.024630517
206	0x3d07fbd2	0.03319914
207	0xba6c8200	-0.0009022057
208	0xbdb416ea	-0.08793433
209	0x3dca8cd7	0.09890144
210	0x3ce774d4	0.02825395
211	0x3db17985	0.08665756
212	0x3d8ece01	0.06972886
213	0x3d565b5e	0.05233323
214	0xbd402204	-0.04690744
215	0xbd08d130	-0.03340262
216	0xbd127756	-0.03575834
217	0x3dba8ed1	0.09109271
218	0x3c3217f8	0.010869972
219	0x3d340db6	0.04395839
220	0xbd57b74e	-0.052665047
221	0xbd13b37a	-0.036059834
222	0xbdbab5aa	-0.09116681
223	0x3d7db02a	0.06193558
224	0xbd1a3ef8	-0.037657708
225	0xbd9c9a0f	-0.07646572
226	0xbdaae7dc	-0.08345005
227	0xbd3f1d10	-0.046658576
228	0xbd9a7224	-0.07541302
229	0x3da9a789	0.08283908
230	0xbd51e54e	-0.051244073
231	0xbdb803da	-0.089851096
232	0x3da75651	0.081707604
233	0x3ca6f124	0.020378657
234	0xbd713b44	-0.05889441
235	0x3d046cfe	0.032330506
236	0xbda9f3d1	-0.082984574
237	0x3d4d68d6	0.050148807
238	0xbd1b6534	-0.03793831
239	0x3d3040ee	0.04303067
240	0x3ca9f5b4	0.020747043
241	0x3b891f30	0.004184626
242	0x3da62dfb	0.08114239
243	0xbdbaf39b	-0.09128495
244	0x3d831643	0.064007305
245	0x3c1822c8	0.009285636
246	0xbd090df6	-0.03346058
247	0xbd9cf952	-0.076647416
248	0xbd9d39b4	-0.076770216
249	0xbb7969c0	-0.0038057417
250	0x3d9bc3df	0.07605719
251	0xbd561a67	-0.052271273
252	0x3d8e7d71	0.0695752
253	0x3ba449e0	0.0050136894
254	0xba9b6280	-0.0011854917
255	0xbd93a579	-0.07209296

conv3.0.bias f4 [20]
0	0x3d6cd346	0.057818674
1	0x3c5f6190	0.013634101
2	0xbc226190	-0.009910956
3	0xbd85d568	-0.06534845
4	0xbd80763f	-0.06272554
5	0x3c089030	0.008335158
6	0xbd326ee7	-0.043562796
7	0x3d9202e3	0.07129457
8	0x3dc9a96f	0.0984677
9	0x3c776b18	0.015101217
10	0xbd49de3f	-0.049284216
11	0x3d2693ce	0.0406683
12	0x3bfa4ef0	0.0076388046
13	0x3da1e7cd	0.079055406
14	0xbc846714	-0.016162433
15	0xbdbbeb32	-0.09175719
16	0xbdc93fd8	-0.0982663
17	0x3d9aaf39	0.07552952
18	0xbda67c8f	-0.081292264
19	0xbbaa7440	-0.0052018464

conv4.0.weight f4 [40, 20, 3, 3]
0	0x3b1aa380	0.0023595989
1	0xbcc4f840	-0.024044156
2	0x3b90fc30	0.0044245943
3	0xbacb2680	-0.0015499145
4	0xbcb1cb0e	-0.02170327
5	0x3d899fb7	0.06719916
6	0x3bc90240	0.0061343014
7	0xbd361730	-0.044455707
8	0xbd95d85f	-0.0731666
9	0xbc9d602c	-0.019210897
10	0xbba03720	-0.004889384
11	0xbc7b2df8	-0.015330784
12	0x3b90dc20	0.004420772
13	0xbcd5ecb2	-0.026113842
14	0x3b5455c0	0.0032399744
15	0x3d2926bc	0.041296706
16	0x3d6f25fe	0.05838584
17	0x3d47ee7e	0.04881143
18	0x3d04c154	0.032410935
19	0xbd1045f2	-0.035222955
20	0x3c601fc0	0.013679445
21	0xbd94b614	-0.07261291
22	0xbd2c7353	-0.04210217
23	0xbd8dafd4	-0.06918302
24	0xbcabf93c	-0.020992868
25	0x3d8e771f	0.06956314
26	0x3d8599b1	0.06523455
27	0x3b898a30	0.0041973814
28	0xbcaf8fc2	-0.021430854
29	0xbcec8a0c	-0.02887442
30	0x3c80a644	0.015704282
31	0x3d81a6a9	0.06330616
32	0x3802d800	3.119558e-05
33	0x3d251596	0.04030379
34	0xbd4659f7	-0.04842564
35	0x3d84a67b	0.06477066
36	0x3d339536	0.04384347
37	0x3c8d7834	0.017269231
38	0x3b398340	0.002830699
39	0x3d9183fb	0.071052514
40	0xbd7095fa	-0.05873678
41	0xbc1f6b40	-0.00973016
42	0xbd7f3eba	-0.06231568
43	0x3d94830f	0.0725156
44	0x3d6cceba	0.057814337
45	0x3d48ff2e	0.049071483
46	0x3d9512d3	0.07278981
47	0xbc87c92c	-0.016575418
48	0xbb4a5680	-0.0030874312
49	0x3c9107b0	0.017703861
50	0xbb0a15e0	-0.0021070167
51	0x3d8a2573	0.06745424
52	0xbd34dcdd	-0.044155944
53	0xbc7e91cc	-0.01553769
54	0x3d955d2f	0.07293164
55	0xbd83f3af	-0.06442963
56	0x3cf2fe88	0.029662386
57	0xbcac9ff0	-0.021072358
58	0xbcf375e8	-0.029719308
59	0xbc8690fe	-0.01642656
60	0x3cad26d0	0.021136671
61	0x3c256a80	0.010096192
62	0xbd800187	-0.06250291
63	0xb9d20e00	-0.00040064752
64	0x3c9ecb08	0.019383922
65	0xbbe7b440	-0.007071048
66	0x3d817e3d	0.06322906
67	0xbcdbf6ae	-0.026851024
68	0xbd6b0170	-0.057374418
69	0xbd37216e	-0.044709615
70	0xbd2d8135	-0.04235955
71	0x3d70736a	0.058703817
72	0x3d8e2855	0.069412865
73	0x3ceab274	0.028649546
74	0xbd0abef4	-0.033873513
75	0xbd7c150b	-0.061543506
76	0x3d89a0b9	0.067201085
77	0x3d533fd6	0.05157455
78	0xbc38f580	-0.0112890005
79	0x3d82b683	0.063824676
80	0x3d5b0d6a	0.05347959
81	0x3d956e0f	0.07296383
82	0xbd860167	-0.06543236
83	0xbca1016c	-0.019653998
84	0xbd22ffca	-0.03979472
85	0x3d0810ce	0.03321915
86	0xbd7d359a	-0.061818697
87	0x3cf65cc0	0.030073524
88	0x3cbe63ec	0.023241006
89	0x3d3c8722	0.04602731
90	0x3c8bb2b4	0.017052986
91	0x3d5aa816	0.053382955
92	0xbce05220	-0.02738291
93	0xbd003631	-0.03130168
94	0xbd106de1	-0.03526104
95	0x3cfcfa88	0.030881181
96	0x3d6801de	0.056642406
97	0x3bff2890	0.007786818
98	0xbc790980	-0.015200019
99	0xbcc02312	-0.023454223
100	0x3d67ef86	0.05662491
101	0xbd329f14	-0.04360874
102	0xbbd04640	-0.0063560307
103	0xbd3b749a	-0.045765497
104	0x3d7b615a	0.06137214
105	0x3b48e0a0	0.0030651465
106	0x3d887fa1	0.06664968
107	0xbd21b995	-0.039483625
108	0x3c9a89b0	0.018864483
109	0x3d066374	0.03280969
110	0x3d4f22c6	0.050570272
111	0x3d12f5ec	0.03587906
112	0xbd8c88d4	-0.068620354
113	0xbd4fda78	-0.050745457
114	0xbd958cbb	-0.07302233
115	0x3cafa908	0.021442905
116	0x3d7fa6ba	0.062414862
117	0xbbedd7f0	-0.007258408
118	0xbd49c7a2	-0.04926265
119	0xbd50a9cd	-0.050943185
120	0x3c4bc410	0.012436882
121	0xbcbfac4c	-0.023397587
122	0xbd21893a	-0.03943751
123	0xbcfa1410	-0.030527145
124	0xbcec58de	-0.028850969
125	0xbd0b0638	-0.033941478
126	0xbd96fa42	-0.07371952
127	0xbd0e03a0	-0.034671426
128	0xbc7bde8c	-0.0153728835
129	0xbd04a8ce	-0.032387547
130	0xbd3acaee	-0.045603685
131	0x3bc84b10	0.006112464
132	0x3c5fa3b0	0.013649866
133	0xbd2a0b05	-0.041514415
134	0x3d4e2000	0.050323486
135	0x3c869b48	0.016431466
136	0x3d90562b	0.07047685
137	0x3c96c3ac	0.01840385
138	0xbcfe7544	-0.031061776
139	0xbd3587ca	-0.04431895
140	0xbbb61400	-0.0055565834
141	0x3cac9774	0.021068312
142	0x3d7b8ba6	0.061412476
143	0xbd1ad6a6	-0.03780236
144	0xbb22fbe0	-0.0024869367
145	0x3c576518	0.013146661
146	0xbd91b2fd	-0.071142174
147	0x3cedcf78	0.029029593
148	0xbd163429	-0.036670838
149	0x3d823e89	0.06359584
150	0xbb7d2ba0	-0.003863074
151	0xbd904fdb	-0.07046481
152	0xbd62b8ec	-0.055352136
153	0x3d2d36b4	0.042288497
154	0x3d561786	0.052268527
155	0xbd8f6c94	-0.070031315
156	0x3cf1093c	0.029423349
157	0x3d8ca0c5	0.06866602
158	0xbd8f746a	-0.07004626
159	0xbba5f760	-0.00506489
160	0x3bfba380	0.007679403
161	0x3c4322f0	0.011910185
162	0xbd5e5abc	-0.05428575
163	0xbd5cf161	-0.053941134
164	0xbce2a49a	-0.027666379
165	0xbd3142c4	-0.043276563
166	0x3ad378c0	0.0016134009
167	0xbc8726d4	-0.016498007
168	0x3cfaf6d0	0.030635267
169	0x3c8c9908	0.017162815
170	0x3d736d52	0.059430428
171	0x3d63ac7a	0.05558441
172	0xbce39d0c	-0.027784847
173	0xbb901470	-0.0043969676
174	0xbbbcc290	-0.0057604983
175	0x3d76d94a	0.060265817
176	0x3d908c6f	0.070580356
177	0xbcab744e	-0.020929482
178	0x3d897cf7	0.06713288
179	0xbd9417b8	-0.072310865
180	0xbd89bb6a	-0.067251995
181	0xbd5c4ca8	-0.053784043
182	0x3c8ae148	0.016953126
183	0x3d7825d2	0.060582943
184	0xbd77d38c	-0.06050448
185	0x3cfd9e0c	0.030959152
186	0xbbf98920	-0.0076152235
187	0xbd1fd523	-0.039021622
188	0x3b22c080	0.0024833977
189	0xbd66510d	-0.05622964
190	0xbd0c5383	-0.03425933
191	0xbc6557ec	-0.013998013
192	0xbc166cb8	-0.009181194
193	0x3c965ae4	0.018353887
194	0xbc0928e8	-0.008371569
195	0x3d5ace52	0.05341942
196	0x3d80e4ff	0.062936775
197	0xbd1e50c0	-0.038651228
198	0xbd3695f2	-0.044576593
199	0x3ce26544	0.027636178
200	0x39ef2300	0.0004561171
201	0x3d66e9fa	0.05637548
202	0xbce0e3d2	-0.027452383
203	0x3d84e189	0.0648833
204	0x3d0623e6	0.03274908
205	0x3d155600	0.03645897
206	0x3cd70d5c	0.026251487
207	0x3bad4210	0.0052874163
208	0x3cbe5fd8	0.023239061
209	0xbb457200	-0.0030127764
210	0xbbfff630	-0.0078113303
211	0xbc7071a0	-0.014675528
212	0xba9e9400	-0.0012098551
213	0xbd5be75a	-0.05368743
214	0x3d78c382	0.060733326
215	0xbd5148a3	-0.051094662
216	0xbd8ce259	-0.0687911
217	0x3ca7927c	0.020455591
218	0xbc94de42	-0.018172387
219	0xbbca9900	-0.00618279
220	0x3d5c15a2	0.05373157
221	0x3d27623a	0.04086516
222	0xbc881100	-0.016609669
223	0x3c6f4d78	0.014605872
224	0x3d3ac138	0.045594424
225	0xbd66f94a	-0.056390084
226	0x3cc1bd80	0.023649931
227	0x3d5ea6d2	0.05435831
228	0x3d3fd638	0.046835154
229	0xbd60d2fe	-0.054888718
230	0xbd1e1b84	-0.03860046
231	0xbd5f73b8	-0.054553717
232	0x3cb62f70	0.022239417
233	0xbd4f488a	-0.050606288
234	0xbcf99bc4	-0.030469783
235	0x3d4d3358	0.050097793
236	0xbd2715ea	-0.040792383
237	0xbca90520	-0.020632327
238	0xbbf8d920	-0.0075942427
239	0x3d301d64	0.04299678
240	0xbbdaf940	-0.006682545
241	0x3cec6844	0.028858311
242	0xbd90cd5b	-0.070704184
243	0xbc75f8d4	-0.0150129385
244	0x3d62f5ae	0.05541008
245	0x3cd07a5c	0.02544897
246	0xba4b9100	-0.0007765442
247	0xbd8fbb4d	-0.07018147
248	0x3bb8c640	0.0056388676
249	0x3d8936c5	0.066998996
250	0x3c9e3a84	0.019315012
251	0xbcab6438	-0.020921811
252	0xbd2c3932	-0.042046733
253	0xbd3dd92e	-0.046349697
254	0x3d813fcb	0.06310996
255	0x3d016112	0.031586714

conv4.0.bias f4 [40]
0	0x3c6d4848	0.014482565
1	0xbacb9500	-0.0015532076
2	0x3d650bc6	0.05591943
3	0xbd8f8dd6	-0.07009475
4	0x3d8092d5	0.06278006
5	0xbc68becc	-0.014205646
6	0xbd26134d	-0.04054575
7	0x3d4de268	0.050264746
8	0x3d7515ca	0.059835233
9	0x3d007ad4	0.031367138
10	0xbce2ac9c	-0.027670197
11	0xbd2b8fb4	-0.041885093
12	0x3d4aa642	0.049474962
13	0x3c921b14	0.017835177
14	0x3d4e89ac	0.050424263
15	0x3d8fb2bd	0.070165135
16	0xbb2a6020	-0.0025997236
17	0x3d24a08c	0.040192172
18	0x3d1ddad4	0.03853877
19	0x3c43fc88	0.011962064
20	0xbd1a6c12	-0.03770072
21	0xbd842e20	-0.0645411
22	0xbd8449d4	-0.06459394
23	0x3d16834a	0.0367463
24	0x3d715412	0.058918066
25	0x3d970e63	0.07375791
26	0xbca94028	-0.020660475
27	0xbceb25b6	-0.028704505
28	0xbd878824	-0.06617764
29	0xbd04aa12	-0.032388754
30	0x3ce8028c	0.028321527
31	0x3d6c5dd6	0.057706676
32	0xbd825a03	-0.063648246
33	0x3d85c97b	0.0653257
34	0xbd796e68	-0.060896307
35	0xbc2e7100	-0.0106470585
36	0x3c09f860	0.008421034
37	0x3c1bf3f0	0.009518608
38	0x3b8fc0f0	0.0043870136
39	0xbcf97cde	-0.03045505

linear.weight f4 [5, 3000]
0	0x3ad3f730	0.001617169
1	0xbbbdc3da	-0.0057911696
2	0x3c82708b	0.015922805
3	0x3c1a16bc	0.009404834
4	0x3b201318	0.0024425443
5	0xbb087838	-0.002082361
6	0xbc1813cd	-0.009282065
7	0xbc42f0d8	-0.011898242
8	0xba00ec80	-0.0004918054
9	0x3c25b9fe	0.010115145
10	0xbb8c298a	-0.004277413
11	0xbb502678	-0.003176121
12	0xbc8bafa6	-0.01705153
13	0x3c870019	0.016479539
14	0x3bb3eab0	0.0054906234
15	0x3a2bec80	0.00065583736
16	0x3ac1d4d0	0.0014788155
17	0x3a5f0180	0.00085069984
18	0xbc1c3844	-0.009534899
19	0x3bf2c8e4	0.007409202
20	0x3c2a69fe	0.010401247
21	0x3c42b8be	0.011884866
22	0xbb9ac514	-0.0047232006
23	0xbb101638	-0.00219859
24	0x3c760222	0.015015157
25	0xbc2354fe	-0.009968994
26	0x3c37b7d0	0.011213258
27	0xbbf013d2	-0.0073265815
28	0x3c5188fc	0.012789007
29	0xbc7fe66e	-0.015618904
30	0xbc06749a	-0.008206511
31	0x3c60c022	0.013717683
32	0x3c6439ea	0.013929823
33	0x3ac97de0	0.0015372597
34	0x3c63b78e	0.013898743
35	0x3c16d5f2	0.009206282
36	0xbb9860a8	-0.004650194
37	0xbc3456f6	-0.011007061
38	0x3c05013c	0.00811797
39	0xbc8c91ba	-0.017159332
40	0x3b568bb8	0.0032737087
41	0xbb035720	-0.0020040944
42	0x3b902d20	0.0043999106
43	0xbc366816	-0.011133214
44	0x3b9023a0	0.004398778
45	0x3c17d4b2	0.009267019
46	0x3b8d2a3c	0.0043080132
47	0x3c1167f4	0.008874882
48	0xb9155e80	-0.00014244951
49	0x3c80097b	0.01562952
50	0xbba8bafe	-0.0051492443
51	0x3c2770da	0.010219777
52	0xba9bea10	-0.0011895318
53	0x39acddc0	0.00032971613
54	0x3c43250e	0.01191069
55	0x3ba722d4	0.0051005874
56	0xbbcabe14	-0.00618721
57	0x3c393fa8	0.011306681
58	0xbc6a41ae	-0.014297886
59	0xbc043907	-0.008070237
60	0x3c3d153c	0.011540707
61	0xbb49188c	-0.0030684797
62	0xbc722b26	-0.014780795
63	0x3a827d10	0.0009955484
64	0xbacbaa00	-0.0015538335
65	0xbc6abffe	-0.014328001
66	0x3b9dbf68	0.004814077
67	0x3b8b1a74	0.004245097
68	0x3b262430	0.002535116
69	0x3c37f1d8	0.011227094
70	0xbac45f70	-0.0014982056
71	0x3bcad268	0.006189633
72	0xbbe19ac6	-0.0068849055
73	0xbc5ca067	-0.013465977
74	0x3c8a2a2d	0.016865814
75	0xbb6813e0	-0.0035412237
76	0x3bf235d8	0.0073916726
77	0xbbcb8a00	-0.0062115192
78	0x3c89f6ab	0.016841253
79	0xbc897645	-0.016780028
80	0x3c667c4a	0.014067719
81	0xbc03ea91	-0.00805153
82	0x3c51c4e4	0.01280329
83	0x3b65fa70	0.00350919
84	0x3c378496	0.011201045
85	0x3c7e98ea	0.015539387
86	0xbc54313e	-0.012951193
87	0xbc892a8c	-0.01674392
88	0x3c407174	0.011745799
89	0xbc488b1d	-0.012240198
90	0xba4010c0	-0.00073267147
91	0xbc8dacf5	-0.017294386
92	0xbc1f369a	-0.009717608
93	0x3b400110	0.0029297508
94	0x3c807e23	0.015685147
95	0x3a3705a0	0.0006981734
96	0xbbdd245e	-0.00674872
97	0xbab52290	-0.0013819505
98	0xbb4350d4	-0.0029802816
99	0xbc2be95f	-0.010492652
100	0xbbcdb99a	-0.006278229
101	0xbc3feade	-0.011713712
102	0x3c095f44	0.0083845295
103	0xbbf39782	-0.0074338326
104	0x3b97d5d4	0.0046336446
105	0xbc316845	-0.010828082
106	0xbc104203	-0.008804801
107	0xbbad3d34	-0.005286837
108	0x3bdc025c	0.0067141484
109	0x3b97653c	0.0046202224
110	0xbc558da4	-0.013034258
111	0x3be11b84	0.006869735
112	0x3bd8b36c	0.0066131856
113	0x3c40682c	0.0117435865
114	0xbbd5d5b2	-0.0065257186
115	0xbb865570	-0.0040995404
116	0xbbdaf95c	-0.006682558
117	0xbbe62ff4	-0.0070247594
118	0xbc680be4	-0.014162991
119	0x3c5cc246	0.013474053
120	0x3b356828	0.002768049
121	0x3c77e726	0.015130794
122	0x3a9ae7f0	0.001181839
123	0xbb1aa3b8	-0.002359612
124	0xbc1b7202	-0.009487631
125	0xbb83efa0	-0.0040263683
126	0xbc519d2e	-0.012793822
127	0x3b81cab8	0.0039609335
128	0x3bbd6ed0	0.005781032
129	0x3c6ec6aa	0.014573732
130	0xbbabf50c	-0.0052477177
131	0xba202e40	-0.00061104074
132	0x3c83278d	0.01601007
133	0xbc506768	-0.0127199665
134	0x3b815894	0.003947327
135	0x3c53491e	0.01289585
136	0x3c4021d0	0.0117268115
137	0x3c95601d	0.018234307
138	0x3c8946c9	0.016757386
139	0x3c5a5ce2	0.013327809
140	0xbc8e0099	-0.01733427
141	0x3c3e0362	0.011597486
142	0x3ad643f0	0.0016347151
143	0xbb346e5c	-0.00275316
144	0x3c06e8e4	0.008234236
145	0x3bc55308	0.006021861
146	0xbc72ef9d	-0.014827636
147	0x39ab65c0	0.0003269147
148	0xbabee3f0	-0.001456378
149	0x3b7f0980	0.0038915575
150	0xbbd63a6c	-0.006537726
151	0xbc86a013	-0.016433751
152	0xbc849018	-0.01618199
153	0xbc374d8a	-0.01118792
154	0x3c6529aa	0.013986984
155	0x3c26c0b4	0.01017778
156	0x3bb8c980	0.005639255
157	0xbc8676e4	-0.016414113
158	0x3c1937de	0.009351699
159	0xbc55d66c	-0.01305161
160	0xbc64cd08	-0.013964899
161	0x3bea6e54	0.0071542654
162	0xbb9f11fc	-0.004854439
163	0xbc897d6f	-0.016783444
164	0xbb3e942c	-0.0029080017
165	0xbc2aa26f	-0.010414704
166	0xbc2147aa	-0.009843746
167	0xbb42eb6c	-0.0029742373
168	0x3c1175d4	0.00887819
169	0x3b9f85f4	0.0048682634
170	0x3c03ecee	0.008052094
171	0xbc8e090b	-0.017338296
172	0xbbe1154e	-0.006868995
173	0xbbd54f30	-0.006509684
174	0x3c8b6d83	0.017019993
175	0x3c588d3a	0.013217265
176	0x3b501330	0.0031749718
177	0x3c886a09	0.016652124
178	0xbabca880	-0.0014393479
179	0xbab6b3e0	-0.0013939105
180	0x3afe9710	0.0019423682
181	0xbc958f5e	-0.01825684
182	0x3c443994	0.011976618
183	0xbbe6b6fc	-0.0070408564
184	0xbc2ce66b	-0.010552983
185	0x3c6533e6	0.013989424
186	0x3c1a1b30	0.009405896
187	0x3be4850c	0.0069738682
188	0x3bfa7ae8	0.007644046
189	0x3c192b64	0.009348724
190	0xbc1ce25a	-0.009575451
191	0xb8d1c800	-0.000100031495
192	0xb816ca00	-3.5950914e-05
193	0xbc7d6c28	-0.015467681
194	0x3c8a1c73	0.016859269
195	0x3c6a0506	0.014283424
196	0x3c33a04c	0.010963511
197	0x3bdeb2c4	0.006796213
198	0xbbd10c0e	-0.006379611
199	0xbc0cd59e	-0.008595852
200	0x3c3ffe08	0.011718281
201	0x3bb42f18	0.005498778
202	0x3c09d876	0.008413425
203	0xbb3ef030	-0.0029134862
204	0x3c8813f5	0.016611079
205	0xbb823740	-0.0039738715
206	0xbbd54c2e	-0.0065093255
207	0xbb9c273e	-0.00476542
208	0xb9d3f7c0	-0.00040429644
209	0x3b83450c	0.0040060338
210	0x3c1ccbb4	0.009570051
211	0x3b094a00	0.0020948648
212	0xbbee7560	-0.007277176
213	0xbbcd54bc	-0.0062662046
214	0xbc63dc97	-0.013907573
215	0xbc40749f	-0.011746555
216	0x3b047e48	0.002021687
217	0xbc93cfe4	-0.018043466
218	0xbc8196ce	-0.01581898
219	0x3c34eda8	0.01104299
220	0x3c389250	0.011265352
221	0x3b8b35f8	0.004248377
222	0x3b29c138	0.002590252
223	0x3c25367a	0.010083789
224	0x3bacfc9c	0.005279137
225	0xbc0dce31	-0.008655117
226	0xbc0b5b0b	-0.008505593
227	0xbc541e34	-0.012946654
228	0x3bd62dcc	0.006536221
229	0xbc7cd5e8	-0.015431859
230	0xbbac6538	-0.0052610897
231	0xbc70b8a6	-0.014692461
232	0xbbc259ce	-0.0059311157
233	0x3c165d00	0.009177446
234	0x3c0e7626	0.008695161
235	0xbc949ad4	-0.018140234
236	0x3b48c4b0	0.0030634813
237	0x3c8aa779	0.01692556
238	0x3be8c924	0.007104056
239	0xbc876f01	-0.016532423
240	0xbc6edd5d	-0.014579144
241	0x3c30a5bc	0.010781702
242	0x3c706376	0.014672151
243	0x3c23e210	0.010002628
244	0x3a83eba0	0.0010064729
245	0xbc5fdb02	-0.013663055
246	0x3c2eb3e0	0.010663003
247	0xbc32498a	-0.010881791
248	0x3c8034b7	0.015650136
249	0x3c034970	0.008013114
250	0xbc11cc14	-0.008898754
251	0x3a264c40	0.00063437596
252	0x3c3f524a	0.011677334
253	0xb9960580	-0.00028614327
254	0xbc5dd8ff	-0.013540505
255	0xbc95496f	-0.018223492

linear.bias f4 [5]
0	0x3c07bd54	0.008284885
1	0xbbc84eb2	-0.006112897
2	0x3c174e5e	0.009234993
3	0xbaa110f0	-0.0012288373
4	0xba02a380	-0.000498347
